…
Epoch 96/100 - 819s - loss: 0.0321 - acc: 0.9950 - val_loss: 0.1396 - val_acc: 0.9851
Epoch 97/100 - 825s - loss: 0.0423 - acc: 0.9938 - val_loss: 0.0208 - val_acc: 0.9975
Epoch 98/100 - 840s - loss: 0.1757 - acc: 0.9857 - val_loss: 0.6674 - val_acc: 0.9586
Epoch 99/100 - 845s - loss: 0.1826 - acc: 0.9864 - val_loss: 0.2871 - val_acc: 0.9820
Epoch 100/100 - 842s - loss: 0.1202 - acc: 0.9857 - val_loss: 0.0449 - val_acc: 0.9958
_________________________________________________________________
Layer (type)                 Output Shape              Param #   
=================================================================
filter1 (Conv2D)             (None, 64, 64, 20)        560       
_________________________________________________________________
activation_1 (Activation)    (None, 64, 64, 20)        0         
_________________________________________________________________
max1 (MaxPooling2D)          (None, 32, 32, 20)        0         
_________________________________________________________________
dropout_1 (Dropout)          (None, 32, 32, 20)        0         
_________________________________________________________________
filter2 (Conv2D)             (None, 32, 32, 30)        5430      
_________________________________________________________________
activation_2 (Activation)    (None, 32, 32, 30)        0         
_________________________________________________________________
max2 (MaxPooling2D)          (None, 16, 16, 30)        0         
_________________________________________________________________
filter3 (Conv2D)             (None, 16, 16, 50)        37550     
_________________________________________________________________
activation_3 (Activation)    (None, 16, 16, 50)        0         
_________________________________________________________________
max3 (MaxPooling2D)          (None, 8, 8, 50)          0         
_________________________________________________________________
dropout_2 (Dropout)          (None, 8, 8, 50)          0         
_________________________________________________________________
flatten_1 (Flatten)          (None, 3200)              0         
_________________________________________________________________
dense_1 (Dense)              (None, 250)               800250    
_________________________________________________________________
dropout_3 (Dropout)          (None, 250)               0         
_________________________________________________________________
activation_4 (Activation)    (None, 250)               0         
_________________________________________________________________
dense_2 (Dense)              (None, 2)                 502       
_________________________________________________________________
activation_5 (Activation)    (None, 2)                 0         
=================================================================
Total params: 844,292
Trainable params: 844,292
Non-trainable params: 0
_________________________________________________________________
None
MoTTY X11 proxy: Authorisation not recognised
MoTTY X11 proxy: Authorisation not recognised
Traceback (most recent call last):
  File "train.py", line 102, in <module>
    run(train, test)
…
